…
MacBook-Pro EVA4S6 % source /Users/amritanshusingh/opt/anaconda3/bin/activate
(base) amritanshusingh@Amritanshus-MacBook-Pro EVA4S6 % conda activate ml
(ml) amritanshusingh@Amritanshus-MacBook-Pro EVA4S6 % /Users/amritanshusingh/opt/anaconda3/envs/ml/bin/python /Users/amritanshusingh/Projects/EVA4S6/epoc.py
CUDA Available? False
Finished loding and transforming data.
cpu
----------------------------------------------------------------
        Layer (type)               Output Shape         Param #
================================================================
            Conv2d-1            [-1, 8, 26, 26]              72
              ReLU-2            [-1, 8, 26, 26]               0
       BatchNorm2d-3            [-1, 8, 26, 26]              16
            Conv2d-4           [-1, 16, 24, 24]           1,152
              ReLU-5           [-1, 16, 24, 24]               0
       BatchNorm2d-6           [-1, 16, 24, 24]              32
         MaxPool2d-7           [-1, 16, 12, 12]               0
            Conv2d-8           [-1, 10, 12, 12]             160
              ReLU-9           [-1, 10, 12, 12]               0
      BatchNorm2d-10           [-1, 10, 12, 12]              20
           Conv2d-11            [-1, 8, 10, 10]             720
             ReLU-12            [-1, 8, 10, 10]               0
      BatchNorm2d-13            [-1, 8, 10, 10]              16
           Conv2d-14             [-1, 16, 8, 8]           1,152
             ReLU-15             [-1, 16, 8, 8]               0
      BatchNorm2d-16             [-1, 16, 8, 8]              32
           Conv2d-17             [-1, 16, 6, 6]           2,304
             ReLU-18             [-1, 16, 6, 6]               0
      BatchNorm2d-19             [-1, 16, 6, 6]              32
           Conv2d-20             [-1, 16, 4, 4]           2,304
             ReLU-21             [-1, 16, 4, 4]               0
      BatchNorm2d-22             [-1, 16, 4, 4]              32
        AvgPool2d-23             [-1, 16, 1, 1]               0
           Conv2d-24             [-1, 10, 1, 1]             160
================================================================
Total params: 8,204
Trainable params: 8,204
Non-trainable params: 0
----------------------------------------------------------------
Input size (MB): 0.00
Forward/backward pass size (MB): 0.45
Params size (MB): 0.03
Estimated Total Size (MB): 0.48
----------------------------------------------------------------
<module 'train_test' from '/Users/amritanshusingh/Projects/EVA4S6/train_test.py'>
…
