…
(ml) amritanshusingh@Amritanshus-MacBook-Pro EVA4S6 % /Users/amritanshusingh/opt/anaconda3/envs/ml/bin/python /Users/amritanshusingh/Projects/EVA4S6/epoc.py
CUDA Available? False
Finished loding and transforming data.
cpu

----------------------------------------------------------------
Input size (MB): 0.00
Forward/backward pass size (MB): 0.45
Params size (MB): 0.03
Estimated Total Size (MB): 0.48
----------------------------------------------------------------
cpu
----------------------------------------------------------------
        Layer (type)               Output Shape         Param #
================================================================
            Conv2d-1            [-1, 8, 26, 26]              72
              ReLU-2            [-1, 8, 26, 26]               0
            Conv2d-3           [-1, 16, 24, 24]           1,152
              ReLU-4           [-1, 16, 24, 24]               0
         MaxPool2d-5           [-1, 16, 12, 12]               0
            Conv2d-6           [-1, 10, 12, 12]             160
              ReLU-7           [-1, 10, 12, 12]               0
            Conv2d-8            [-1, 8, 10, 10]             720
              ReLU-9            [-1, 8, 10, 10]               0
           Conv2d-10             [-1, 16, 8, 8]           1,152
             ReLU-11             [-1, 16, 8, 8]               0
           Conv2d-12             [-1, 16, 6, 6]           2,304
             ReLU-13             [-1, 16, 6, 6]               0
           Conv2d-14             [-1, 16, 4, 4]           2,304
             ReLU-15             [-1, 16, 4, 4]               0
        AvgPool2d-16             [-1, 16, 1, 1]               0
           Conv2d-17             [-1, 10, 1, 1]             160
================================================================
Total params: 8,024
Trainable params: 8,024
Non-trainable params: 0



 Running module is <module 'model_arc' from '/Users/amritanshusingh/Projects/EVA4S6/model_arc.py'> <module 'train_test' from '/Users/amritanshusingh/Projects/EVA4S6/train_test.py'>

1st This is the train and test accuracy for Batch Normalization only.

EPOCH: 0
Loss=0.10378553718328476 Batch_id=937 Accuracy=94.45: 100%|███████████████████████████████████████████████████████| 938/938 [00:49<00:00, 18.97it/s]
…
